…
time_distributed_31 (TimeDistri (None, 5, 12, 31, 25 1024        time_distributed_30[0][0]        
__________________________________________________________________________________________________
time_distributed_32 (TimeDistri (None, 5, 12, 31, 25 0           time_distributed_31[0][0]        
__________________________________________________________________________________________________
time_distributed_33 (TimeDistri (None, 5, 12, 31, 25 0           time_distributed_32[0][0]        
__________________________________________________________________________________________________
time_flatten (TimeDistributed)  (None, 5, 95232)     0           time_distributed_33[0][0]        
__________________________________________________________________________________________________
input_2 (InputLayer)            (None, 5, 7)         0                                            
__________________________________________________________________________________________________
time_FC1 (TimeDistributed)      (None, 5, 512)       48759296    time_flatten[0][0]               
__________________________________________________________________________________________________
time_distributed_36 (TimeDistri (None, 5, 32)        256         input_2[0][0]                    
__________________________________________________________________________________________________
time_distributed_34 (TimeDistri (None, 5, 512)       0           time_FC1[0][0]                   
__________________________________________________________________________________________________
time_distributed_37 (TimeDistri (None, 5, 32)        0           time_distributed_36[0][0]        
__________________________________________________________________________________________________
time_FC2 (TimeDistributed)      (None, 5, 512)       262656      time_distributed_34[0][0]        
__________________________________________________________________________________________________
time_distributed_38 (TimeDistri (None, 5, 32)        1056        time_distributed_37[0][0]        
__________________________________________________________________________________________________
time_distributed_35 (TimeDistri (None, 5, 512)       0           time_FC2[0][0]                   
__________________________________________________________________________________________________
time_distributed_39 (TimeDistri (None, 5, 32)        0           time_distributed_38[0][0]        
__________________________________________________________________________________________________
concatenate_1 (Concatenate)     (None, 5, 544)       0           time_distributed_35[0][0]        
                                                                 time_distributed_39[0][0]        
__________________________________________________________________________________________________
lstm_1 (LSTM)                   (None, 128)          344576      concatenate_1[0][0]              
__________________________________________________________________________________________________
dense_5 (Dense)                 (None, 32)           4128        lstm_1[0][0]                     
__________________________________________________________________________________________________
output (Dense)                  (None, 1)            33          dense_5[0][0]                    
==================================================================================================
Total params: 50,549,633
Trainable params: 50,547,713
Non-trainable params: 1,920
__________________________________________________________________________________________________
